deep_svdd_model.pth (torch, 646505 bytes, 20 tensors)

conv.0.weight f4 [32, 3, 3, 3]
0	0xbcb79b3a	-0.022412885
1	0x3d38de79	0.04513404
2	0x3e2d010b	0.16894929
3	0xbd808a72	-0.06276406
4	0x3e265c5b	0.16246168
5	0x3d97acf8	0.07406038
6	0xbe24df23	-0.16100745
7	0x3ce19661	0.027537527
8	0x3ca4543d	0.0200597
9	0x3e1663cf	0.14686511
10	0xbcd6db16	-0.026227515
11	0xbd1f8405	-0.038944263
12	0xbd5e6637	-0.0542967
13	0xbd065552	-0.03279621
14	0xbe45ace6	-0.19304237
15	0x3e1c5ddf	0.15270184
16	0x3d94a347	0.07257705
17	0xbe15f7fd	-0.14645381
18	0xbd68fd84	-0.056882396
19	0x3d23c837	0.03998586
20	0x3e0970a4	0.13421875
21	0x3db94479	0.09046263
22	0x3e026e1a	0.12737313
23	0xbda4b37e	-0.08042048
24	0xbe2b9549	-0.16756167
25	0x3e17f2c0	0.14838696
26	0xbdc58365	-0.09644202
27	0x3e227d41	0.15868093
28	0xbca77f28	-0.020446375
29	0xbd283a82	-0.041071422
30	0x3da66a03	0.08125689
31	0xbe088cbe	-0.13334939
32	0x3de7bc7d	0.11315248
33	0xbc4dea9f	-0.012568145
34	0xbdab083c	-0.0835118
35	0x3ddaec57	0.106896095
36	0x3e2b49f6	0.16727433
37	0x3e29db69	0.16587605
38	0x3dbc3aaa	0.09190877
39	0x3dc10006	0.094238326
40	0x3c98e890	0.018665582
41	0x3c7966d2	0.015222268
42	0xbdb3b348	-0.087744296
43	0x3c897bd8	0.016782686
44	0x3d6d78a4	0.05797638
45	0x3d8fc532	0.07020034
46	0x3dbd2865	0.0923622
47	0xbe00abdc	-0.12565559
48	0xbb2c2581	-0.0026267471
49	0xbdd75f03	-0.10516169
50	0x3e380d3a	0.17973796
51	0xbce6a20f	-0.028153447
52	0xbdc5a3cd	-0.09650383
53	0xbcd717e5	-0.026256511
54	0xbdaf2196	-0.08551328
55	0x3e3969b4	0.18106729
56	0x3e19a710	0.15005136
57	0xbde15420	-0.11002374
58	0x3d92be29	0.071651764
59	0xbdb8db30	-0.09026182
60	0xbd278e06	-0.04090693
61	0x3bd60cfc	0.0065323096
62	0xbdebc5f7	-0.11512368
63	0x3d6d4eba	0.057936408
64	0x3e161c56	0.14659247
65	0xbe36989d	-0.17831655
66	0x3c085d2f	0.008322998
67	0x3e0c45ef	0.13698553
68	0x3cc65cca	0.024214167
69	0xbd1d5d92	-0.038419314
70	0x3d8fd206	0.07022481
71	0xbda60b03	-0.08107569
72	0x3d2f2394	0.04275854
73	0x3e1ba572	0.15199831
74	0xbd94ce66	-0.0726593
75	0x3e3b305d	0.18280168
76	0x3df3d7d5	0.11906401
77	0xbd99f144	-0.07516721
78	0xbdfd9d99	-0.12383575
79	0x3dd49153	0.10379281
80	0x3df16e8f	0.117886655
81	0x3e3ba700	0.18325424
82	0xbdb1d7c8	-0.08683735
83	0xbe128e11	-0.14312007
84	0x3d63f186	0.055650257
85	0xbdb0c568	-0.08631402
86	0x3d8a8c3f	0.06765031
87	0xbe014716	-0.12624773
88	0xbc895a2d	-0.016766632
89	0xbcce127e	-0.025155302
90	0x3d86cf46	0.06582503
91	0x3e30a5dd	0.17250772
92	0x3d40953b	0.047017317
93	0xbd9aa9fc	-0.07551953
94	0x3e279819	0.16366614
95	0x3cde5fa2	0.02714521
96	0x3c8f2915	0.017475644
97	0x3e433070	0.19061446
98	0xbe0b02ad	-0.1357524
99	0xbe298539	-0.16554727
100	0x3c82e42d	0.015977943
101	0x3d9242bb	0.07141634
102	0x3e3d8c87	0.18510638
103	0x3df3ea1a	0.11909886
104	0x3e2fda50	0.17173123
105	0xbcc2e1f5	-0.023789385
106	0xbbd678be	-0.0065451553
107	0xbd9728eb	-0.07380851
108	0x3e2b1582	0.16707423
109	0xbd825635	-0.06364099
110	0xbd369dbf	-0.044584032
111	0x3d9053b0	0.07047212
112	0x3d97abec	0.07405838
113	0xbe13934c	-0.14411658
114	0x3e418348	0.18897736
115	0x3c99bb73	0.01876614
116	0xbe33312e	-0.1749923
117	0x3d87d064	0.06631544
118	0x3d8977ed	0.06712327
119	0x3e10f8c4	0.14157397
120	0xbe146a3b	-0.14493649
121	0x3dc8f321	0.09811998
122	0xbddd4d18	-0.1080572
123	0xbd0b2275	-0.033968408
124	0x3df5b5dd	0.11997578
125	0x3e3ffba1	0.18748333
126	0xbe36066d	-0.17775889
127	0xbdb976bc	-0.0905585
128	0x3e2312a5	0.15925081
129	0xbcd87674	-0.02642367
130	0x3dbd8758	0.092543304
131	0x3e19b97c	0.15012163
132	0xbd1a1578	-0.03761813
133	0x3ddaf1c9	0.10690648
134	0xbd7116b4	-0.058859542
135	0xbd5f4766	-0.05451145
136	0x3e402b67	0.18766557
137	0x3e2c3abe	0.16819283
138	0x3d4d0411	0.050052706
139	0x3e209323	0.15681128
140	0x3e39f0bd	0.1815824
141	0xbe0fc605	-0.14040382
142	0x3d3b2694	0.045691088
143	0xbbf5aa1e	-0.007497086
144	0xbda1ef86	-0.079070136
145	0xbe03b1db	-0.12860815
146	0x3db46b3c	0.08809516
147	0x3e04c364	0.1296516
148	0x3dc3e0b5	0.09564344
149	0xbe38b32e	-0.18037102
150	0xbe2ee66a	-0.17080083
151	0x3d4a902f	0.04945391
152	0xbd85bab2	-0.0652975
153	0x3e29239b	0.16517489
154	0x3cf767de	0.030200895
155	0x3bb7e976	0.0056125475
156	0xbdae551d	-0.08512328
157	0xbd107a1e	-0.03527271
158	0xbdcf3fb8	-0.10119575
159	0xbd937c22	-0.07201411
160	0x3e2ba348	0.16761506
161	0x3c24835d	0.010041085
162	0xbdbf36c4	-0.093366176
163	0xbdd3f9db	-0.103503905
164	0xba0d0d4f	-0.0005380706
165	0x3dbf76fb	0.093488656
166	0x3d34a94f	0.044106778
167	0xbc2fae85	-0.010722761
168	0x3dddec11	0.10836042
169	0x3c948a65	0.018132398
170	0x3df84d3b	0.121241055
171	0xbcbf0a84	-0.023320444
172	0xbdcf01ad	-0.101077415
173	0x3d989089	0.07449443
174	0xbd39a1bc	-0.045320258
175	0xbcb52668	-0.02211304
176	0x3d2879a1	0.04113162
177	0xbdb7278b	-0.08943089
178	0xbd4a7f98	-0.04943809
179	0x3e02f437	0.12788473
180	0x3d44388b	0.047905486
181	0x3e351500	0.17683792
182	0xbdd96f11	-0.10616887
183	0xbd5c5147	-0.05378845
184	0xbd22b41a	-0.03972254
185	0x3e11a430	0.14222789
186	0x3c8fff8b	0.017577907
187	0x3e2a9146	0.1665698
188	0x3c28ce88	0.010303147
189	0xbd4e8c1d	-0.05042659
190	0x3e072142	0.1319628
191	0xbe2f4f4f	-0.17120098
192	0x3c84943b	0.016183963
193	0x3d5cd3ee	0.05391305
194	0xbce2dd69	-0.027693467
195	0x3d8943af	0.06702363
196	0xbc9911f6	-0.018685322
197	0xbd81d31e	-0.063390955
198	0x3e2c7a9d	0.16843648
199	0xbdf1bce5	-0.11803607
200	0xbd88cc0b	-0.06679543
201	0xbe01f4fa	-0.12691107
202	0xbce7d261	-0.028298559
203	0xbd413ef0	-0.047179163
204	0xbe0fb5d8	-0.14034212
205	0xbdb5375b	-0.08848449
206	0xbe286745	-0.16445644
207	0x3d14960b	0.036275905
208	0x3dab0cbe	0.0835204
209	0xbc1da7a7	-0.009622491
210	0xbca7ea01	-0.020497324
211	0x3d775dcf	0.060392197
212	0xbd3d1476	-0.04616209
213	0xbde5dd03	-0.11223795
214	0xbcd6fd49	-0.026243823
215	0x3e1f94ee	0.15584156
216	0xbda5b025	-0.080902375
217	0xbe27a3c4	-0.16371065
218	0xbd3ccef0	-0.04609579
219	0xbe16f298	-0.1474098
220	0xbe2fea5e	-0.17179248
221	0x3db53c04	0.08849338
222	0x3d11b756	0.035575233
223	0x3dcc2f4d	0.099699594
224	0xbd8cb788	-0.06870943
225	0xbe141d50	-0.14464307
226	0xbe0f02c9	-0.13965906
227	0x3dfe051d	0.12403319
228	0xbdb25c37	-0.08708995
229	0x3d0c58f1	0.03426451
230	0x3d59da32	0.053186603
231	0xbd4e7aee	-0.050410204
232	0xbdfa0ffd	-0.12210081
233	0x3e2cc81a	0.16873208
234	0x3d952626	0.07282667
235	0x3e2e6982	0.17032436
236	0x3e13ec1f	0.14445542
237	0x3d18fe11	0.03735167
238	0x3daac195	0.08337704
239	0x3caa3f22	0.020782057
240	0xbd43598e	-0.047692828
241	0xbe0b3135	-0.1359299
242	0xbe313aac	-0.17307538
243	0xbe089511	-0.13338114
244	0x3e0509ef	0.1299207
245	0xbe43ead3	-0.19132547
246	0xbda8a5bf	-0.082347386
247	0xbe2358cc	-0.15951842
248	0xbbc0071d	-0.005860223
249	0xbe20c6e1	-0.15700866
250	0xbd8409cf	-0.06447183
251	0x3ca9cf2b	0.020728668
252	0xbba66445	-0.005077871
253	0xbdba6045	-0.09100393
254	0xbd29e6cb	-0.041479867
255	0x3cbabd99	0.022795485

conv.0.bias f4 [32]
0	0xbd9ce742	-0.076612964
1	0x3e2e237d	0.17005725
2	0x3d0a89a4	0.03382267
3	0xbd9b3c30	-0.07579839
4	0x3e4287f2	0.18997172
5	0xbe162295	-0.1466163
6	0x3a148655	0.0005665769
7	0xbdf1f02f	-0.118133895
8	0xbd3dd0ff	-0.046341892
9	0xbe2934ce	-0.1652405
10	0x3e3d1c95	0.18467934
11	0xbdfd5d84	-0.12371352
12	0xbe02d3ac	-0.12776059
13	0x3c130e41	0.008975566
14	0xbd49fe99	-0.04931507
15	0x3e0234e0	0.12715483
16	0x3d5ef5c1	0.054433588
17	0x3db4f652	0.08836044
18	0x3d911b92	0.07085337
19	0x3e1b57e1	0.15170242
20	0xbce06015	-0.027389565
21	0xbd8e415d	-0.06946061
22	0xbd18d687	-0.037313964
23	0xbdef3d9b	-0.11681672
24	0xbdf1b3f6	-0.11801903
25	0x3dd47802	0.10374452
26	0xbdcf86ac	-0.101331085
27	0xbd35ffaf	-0.044433292
28	0x3c8e8c45	0.01740087
29	0xbdcab58d	-0.09897909
30	0x3d530071	0.051514093
31	0xbe255ab7	-0.16147886

conv.1.weight f4 [32]
0	0x3f7f361a	0.9969193
1	0x3f8053f6	1.0025623
2	0x3f7e1314	0.9924786
3	0x3f8014da	1.0006363
4	0x3f80db39	1.0066901
5	0x3f805bfa	1.0028069
6	0x3f7ee11e	0.9956225
7	0x3f80cf94	1.0063348
8	0x3f80ad57	1.0052899
9	0x3f7e9790	0.99450016
10	0x3f7e9b31	0.99455553
11	0x3f7df7d2	0.9920627
12	0x3f8082fe	1.0039976
13	0x3f7e81bb	0.99416703
14	0x3f7ea1e2	0.99465764
15	0x3f80b0fe	1.0054014
16	0x3f7e7b06	0.9940647
17	0x3f7f283f	0.99670786
18	0x3f7f39a8	0.9969735
19	0x3f7dc1fb	0.99124116
20	0x3f7e8fa2	0.99437916
21	0x3f7e5646	0.9935039
22	0x3f81008c	1.0078292
23	0x3f7e5506	0.99348485
24	0x3f803bf3	1.0018295
25	0x3f80d5a2	1.0065196
26	0x3f80ba80	1.0056915
27	0x3f80f3ec	1.0074439
28	0x3f80bcfd	1.0057675
29	0x3f80ae24	1.0053144
30	0x3f7e4f01	0.993393
31	0x3f80c335	1.0059572

conv.1.bias f4 [32]
0	0xbb80d255	-0.0039313235
1	0xbbbab0fb	-0.0056973672
2	0x3a3be014	0.0007166874
3	0xbc18b099	-0.009319448
4	0xbbbeb980	-0.005820453
5	0x3bfdb62a	0.007742663
6	0xbb8cf195	-0.0043012598
7	0x3bcb3e1b	0.006202472
8	0x3bc512cb	0.006014203
9	0xbba62c74	-0.005071217
10	0xbb7fdebc	-0.0039042672
11	0x3b67304f	0.0035276597
12	0x3bb3d3cb	0.005487894
13	0xbbcea467	-0.0063062194
14	0x3bd30b0d	0.0064405263
15	0xbbc57b03	-0.006026627
16	0xbbc577f1	-0.006026261
17	0x3bf7a366	0.0075573204
18	0xbad32de0	-0.0016111694
19	0xbbcb345f	-0.0062013115
20	0xbb7243bb	-0.003696664
21	0xbbdfa3fc	-0.0068249684
22	0x3c0d3e97	0.00862088
23	0x3bdb3362	0.006689475
24	0x3b8d0b2d	0.004304311
25	0x3bc3fc4f	0.0059810053
26	0x3bd491ef	0.006487123
27	0x3bc21332	0.0059226984
28	0x3bc2102d	0.0059223385
29	0x3a62ea3b	0.0008656119
30	0x3a83067d	0.000999644
31	0x3bb3e0d4	0.005489448

conv.1.running_mean f4 [32]
0	0xbdc43441	-0.09580279
1	0x3e0ea0d0	0.13928533
2	0xbd20014e	-0.039063744
3	0xbe0b439f	-0.13600014
4	0x3e10b505	0.14131553
5	0xbe22ffdb	-0.15917914
6	0xbd648ed1	-0.055800263
7	0xbdc3f842	-0.09568836
8	0xbd522a2e	-0.051309757
9	0xbde27dee	-0.110591754
10	0x3e2f445e	0.17115924
11	0xbdc6474c	-0.096815675
12	0xbe23e58b	-0.16005532
13	0xbe192bbb	-0.14958088
14	0xbe11a45d	-0.14222856
15	0x3e15a05c	0.14611953
16	0x3c8d9ae9	0.017285781
17	0x3e455550	0.19270825
18	0x3df4b171	0.11947907
19	0x3d9661b3	0.073428534
20	0xbe44513a	-0.1917161
21	0xbd48fc04	-0.049068466
22	0xbc04f340	-0.008114636
23	0xbdc27613	-0.09495177
24	0xbde54160	-0.1119411
25	0x3d839c31	0.064262755
26	0xbe13f9ab	-0.1445071
27	0xbd1c075a	-0.03809295
28	0xbdc04538	-0.093882024
29	0xbdce65d1	-0.10078014
30	0x3e0cd651	0.1375363
31	0xbe0aef97	-0.13567959

conv.1.running_var f4 [32]
0	0x3d468a99	0.04847202
1	0x3d82bfaf	0.06384217
2	0x3d860cab	0.06545385
3	0x3d8162f4	0.06317702
4	0x3d7811e6	0.060563944
5	0x3d592ced	0.05302136
6	0x3d5eb57d	0.0543723
7	0x3d68fd97	0.056882467
8	0x3d61e0fd	0.055146206
9	0x3da26c9d	0.079308726
10	0x3d741a51	0.05959541
11	0x3d5a6201	0.05331612
12	0x3db92561	0.090403326
13	0x3e63c523	0.2224317
14	0x3da1fd80	0.079096794
15	0x3d3e721c	0.046495542
16	0x3d7f4b58	0.062327713
17	0x3e0009b3	0.125037
18	0x3df78c10	0.12087262
19	0x3d4c9ff2	0.049957223
20	0x3e7ddb53	0.24790697
21	0x3d80cc79	0.06289
22	0x3d4dc3d7	0.050235596
23	0x3d4e708b	0.050400298
24	0x3d381e32	0.04495067
25	0x3d4d85f7	0.050176587
26	0x3d5310dc	0.05152975
27	0x3d59f67f	0.053213593
28	0x3db85e92	0.09002413
29	0x3d3cc390	0.04608494
30	0x3d6a498d	0.05719905
31	0x3d3adcab	0.0456206

conv.4.weight f4 [64, 32, 3, 3]
0	0xbc8d7a25	-0.017270157
1	0x3b6c042c	0.0036013229
2	0xbd458386	-0.048221134
3	0xbc87aee1	-0.016562881
4	0xbcdd06ee	-0.026980843
5	0x3d4f1ec9	0.05056647
6	0x3cd36220	0.025803626
7	0xbc87f252	-0.01659504
8	0xbcfaae81	-0.030600788
9	0xbb248573	-0.0025103956
10	0xbd2344ef	-0.039860662
11	0xbb8e6929	-0.004346032
12	0x3cca7ce5	0.024717757
13	0x3d115a38	0.03548643
14	0xbd389377	-0.04506251
15	0xbc74c48d	-0.0149394395
16	0xbd447c68	-0.047970206
17	0x3cd9ef06	0.026603233
18	0xbd238280	-0.039919376
19	0xbcb8a672	-0.022540305
20	0xbd228b47	-0.039683606
21	0xbd43b3f5	-0.047779042
22	0xbab1d68e	-0.0013567971
23	0x3d464d73	0.048413705
24	0x3d3db962	0.046319373
25	0xbd5c2d4e	-0.053754143
26	0xbd6146da	-0.05499921
27	0x3c29bc56	0.010359844
28	0xbd293063	-0.04130591
29	0x3bce26e8	0.006291259
30	0xbd5c372f	-0.053763565
31	0x3d099e0c	0.03359799
32	0x3b780482	0.0037844484
33	0x3b4b3326	0.0031005829
34	0x3d7c073c	0.061530337
35	0xbce6f7bf	-0.028194306
36	0x3cf9dfa6	0.030502152
37	0xbd460d73	-0.04835267
38	0xbd085b89	-0.03329042
39	0x3d4e2917	0.050332155
40	0x3c83e7f7	0.01610182
41	0x3c44d14f	0.012012794
42	0x3d166202	0.03671456
43	0x3d0f2045	0.034942884
44	0xbd12b62c	-0.035818264
45	0xbd339712	-0.043845244
46	0xbd50bac2	-0.050959356
47	0xbd7acec0	-0.06123233
48	0x3cb39c16	0.021925014
49	0x3c4726e5	0.012155269
50	0x3b426cd2	0.0029666913
51	0x3c6a540e	0.014302267
52	0x3c605374	0.013691772
53	0xbc8ca570	-0.01716873
54	0x3bd7732d	0.0065750093
55	0xbc85d249	-0.016335623
56	0x3d4d765b	0.0501617
57	0xbc9186da	-0.017764498
58	0x3cd5523c	0.026040189
59	0x3d212a52	0.039347
60	0xbcfc69a1	-0.030812087
61	0x3d2aeab6	0.041727744
62	0xbd74167f	-0.059591766
63	0xbd509ed3	-0.050932717
64	0x3d627e3e	0.055296175
65	0x3c395ac8	0.011313148
66	0x3c106f73	0.008815634
67	0x3d0247b6	0.03180667
68	0xbcfd9cf8	-0.030958638
69	0xbd0d0481	-0.034428123
70	0xbd2fee36	-0.042951785
71	0xbd17a55b	-0.03702293
72	0xbd4727ec	-0.048622057
73	0x3b8eb78b	0.004355376
74	0x3d5f06fe	0.054450028
75	0xbd1f7409	-0.03892902
76	0xba50e8d6	-0.00079692656
77	0xbcc94bcf	-0.024572281
78	0xbd005e98	-0.03134021
79	0xbb801485	-0.003908696
80	0x3d03e79f	0.032203313
81	0x3b87e773	0.004147464
82	0x3d613497	0.054981794
83	0x3d422fe5	0.047408957
84	0x3aebc5c5	0.0017988017
85	0x3d30640d	0.043064166
86	0xbd1878cc	-0.037224576
87	0x3b44c469	0.0030024296
88	0xbcec3377	-0.028833134
89	0x3d1458fd	0.03621768
90	0xbd693b14	-0.056941107
91	0xbd442700	-0.047888756
92	0xbd393893	-0.04521997
93	0xbd1a36a8	-0.03764978
94	0xbb88e70a	-0.0041779326
95	0x3d52309d	0.051315892
96	0xbc8b4469	-0.017000394
97	0xbc3cdae2	-0.011526795
98	0x3d4d08be	0.050057165
99	0x3d18fda1	0.037351254
100	0x3d83a8c6	0.06428675
101	0x3d2d1baf	0.04226273
102	0x3c6233d5	0.013806303
103	0xbcd6d645	-0.026225219
104	0x3d4fb6cc	0.050711438
105	0xbcc4c1d8	-0.024018213
106	0xbd4d0566	-0.050053976
107	0xbd39fbdc	-0.045406207
108	0xbd066f99	-0.03282127
109	0xbbba1a98	-0.0056794398
110	0x3c83fff4	0.016113259
111	0x3d02fac4	0.03197743
112	0x3c4fe7ef	0.012689575
113	0x3cfe231f	0.031022606
114	0xbcd14565	-0.025545785
115	0x3cab00ae	0.020874348
116	0xbc8e34c7	-0.01735915
117	0xbc9ead85	-0.01936985
118	0x3d3edce6	0.046597384
119	0xbd25c4c6	-0.04047086
120	0xbd58ae90	-0.05290085
121	0x3d569a4c	0.052393243
122	0x3ce476c9	0.027888672
123	0x3c8e3c94	0.01736287
124	0x3c8a29de	0.016865667
125	0x3a9f49f0	0.0012152772
126	0xbc9221be	-0.017838355
127	0xbc3d5474	-0.01155578
128	0xbd6c6c20	-0.057720304
129	0xbc327f3c	-0.010894593
130	0x3d2ef794	0.042716578
131	0x3d013648	0.031545907
132	0x3cd92ffe	0.026512142
133	0xbd44ce2d	-0.048048187
134	0xb9ad3a00	-0.00033040345
135	0x3d2fcfc5	0.042922754
136	0xbc95e7ef	-0.018299071
137	0xbd45aab5	-0.048258502
138	0x3ccc15cc	0.024912737
139	0x3c81ff7a	0.015868891
140	0x3d4c1a34	0.049829677
141	0xbccd5331	-0.025064083
142	0x3d852f8a	0.06503208
143	0x3d07edf8	0.03318593
144	0xbc82811a	-0.015930701
145	0xbd4d9991	-0.05019528
146	0xbd41976a	-0.04726354
147	0xbd3da615	-0.046300966
148	0x3c280c00	0.010256767
149	0x3d62ee5a	0.05540309
150	0x3b06c4cd	0.002056408
151	0xbc05f3c4	-0.008175794
152	0xbd196e83	-0.037458908
153	0xbd46bd6b	-0.048520487
154	0x3c48b0e5	0.012249206
155	0xba106fee	-0.0005509843
156	0x3d34f15f	0.044175502
157	0x3d62fd1f	0.055417176
158	0x3d6e4f3e	0.05818104
159	0xbd54d972	-0.051965185
160	0x3c254d3a	0.010089213
161	0xbb89907b	-0.0041981316
162	0xbc759df8	-0.014991276
163	0x3c048ed3	0.008090693
164	0x3d55ad56	0.05216726
165	0x3cd3d8f1	0.025860282
166	0x3d7842c7	0.06061056
167	0xbd1c0f9b	-0.03810082
168	0xbd171607	-0.03688624
169	0x3d285eff	0.04110622
170	0xbd3a6645	-0.045507688
171	0xbc71a4f6	-0.014748802
172	0xbbcb52bf	-0.0062049325
173	0xbd646355	-0.055758793
174	0xbd388f8b	-0.04505877
175	0x3d743e10	0.0596295
176	0x3d215a04	0.039392486
177	0xbd48c87a	-0.049019314
178	0x3d20091f	0.0390712
179	0x3ccd0332	0.025025938
180	0x3ccc412a	0.024933416
181	0xbd78eae1	-0.060770873
182	0xbd2f4958	-0.042794555
183	0x3d7a6b4d	0.061137486
184	0x3c866d1f	0.016409455
185	0x39c646f4	0.00037818367
186	0xbcacf0b2	-0.021110866
187	0x3c890062	0.016723815
188	0xbd24857a	-0.040166356
189	0x3d57386b	0.05254404
190	0xbc900609	-0.017581003
191	0x3cf84b52	0.030309353
192	0xbd3ed9e6	-0.046594523
193	0xbd4b051b	-0.049565416
194	0xbcd679fc	-0.026181214
195	0xbd80917c	-0.06277749
196	0xbd27f3f5	-0.04100414
197	0x3d30d165	0.043168444
198	0xbc534a53	-0.012896138
199	0xbd2ad9ca	-0.041711606
200	0x3c2e35a2	0.010632904
201	0x3d279236	0.040910922
202	0x3c5629f1	0.013071523
203	0xbcb35e00	-0.021895409
204	0x3c3db826	0.011579549
205	0xbd2b221b	-0.041780572
206	0xbc6a4966	-0.014299726
207	0x3c96e8c5	0.01842154
208	0xbc3cf0d1	-0.0115320245
209	0x3d292d6a	0.041303076
210	0xbcf63251	-0.03005329
211	0xbcf58d68	-0.029974654
212	0x3b18e7ad	0.002333145
213	0x3cde12c3	0.027108556
214	0xbd072961	-0.032998446
215	0x3c3d9752	0.011571722
216	0xbd23cf2b	-0.039992493
217	0xbcb1b9ac	-0.02169498
218	0x3d7038d1	0.058647934
219	0xbcd065d3	-0.025439179
220	0xbd0265e8	-0.031835467
221	0x3bfab56e	0.0076510226
222	0x3d1ab448	0.037769586
223	0xbd82974c	-0.06376514
224	0x3d4cc095	0.049988348
225	0x3d3b0885	0.04566242
226	0xbd42dd74	-0.047574475
227	0xbc65419c	-0.013992693
228	0x3d36b013	0.04460151
229	0x3d50e419	0.05099878
230	0xbd1884b4	-0.03723593
231	0x3d7f0fd0	0.06227094
232	0x3ce260cd	0.027634049
233	0x3c325e20	0.010886699
234	0xbcf988b7	-0.030460699
235	0xbd532ab7	-0.051554408
236	0xbcb46df8	-0.022025093
237	0x3cac8dec	0.021063767
238	0xba0faabd	-0.0005480459
239	0xbcc75361	-0.02433175
240	0xbc3e0e31	-0.011600063
241	0xb91ad42a	-0.00014765622
242	0x3bf5b88e	0.0074988073
243	0x3c8c13d3	0.017099297
244	0xbd33e337	-0.04391786
245	0x3d426b6f	0.047465738
246	0xbd377505	-0.044789333
247	0x3b971177	0.0046102363
248	0xbd10634a	-0.03525094
249	0x3c3429b8	0.010996275
250	0x3d541575	0.051778276
251	0x3c078303	0.008270982
252	0x3d3b351d	0.04570495
253	0xbc938a79	-0.018010365
254	0x3c66c9af	0.014086171
255	0x3c5fca2e	0.013659043

conv.4.bias f4 [64]
0	0xbcb2d025	-0.021827767
1	0xbcf58c51	-0.029974135
2	0x3c8687ab	0.016422113
3	0xbd1b9b26	-0.037989758
4	0x3c9d3376	0.019189578
5	0xbd08f935	-0.033440787
6	0xbc2cd13f	-0.010547935
7	0x3cfa899b	0.030583194
8	0x3d13991b	0.036034685
9	0x3d16f5f0	0.036855638
10	0x3d6581ed	0.05603211
11	0x3d6d9f37	0.058013167
12	0xbcf6b43d	-0.030115241
13	0xbd719182	-0.058976658
14	0x3d4f2dc7	0.050580766
15	0xbd3a309b	-0.04545651
16	0x3af94221	0.00190169
17	0xbc0fdb6d	-0.0087803425
18	0xbcbedbfd	-0.023298258
19	0x3c737494	0.014859337
20	0x3ce0d2cd	0.027444268
21	0x3ce082a6	0.027406048
22	0xbd1ee5a4	-0.03879322
23	0xbd3481c3	-0.044069063
24	0x3c3f4b77	0.011675707
25	0xbca77c2d	-0.020444954
26	0x3d1b23bd	0.03787588
27	0xbc7cccfa	-0.01542973
28	0xbc51bad2	-0.012800889
29	0xba79fa8f	-0.00095359323
30	0xbc936a36	-0.017994981
31	0xbd18ac42	-0.037273653
32	0xbd013ece	-0.031554036
33	0x3bee2d53	0.0072685867
34	0xbb4d6d65	-0.0031345722
35	0xbd2ae9b5	-0.041726787
36	0x3d5a652d	0.053319145
37	0xbcea90bf	-0.028633473
38	0x3afda4bc	0.0019351463
39	0xbd460491	-0.0483442
40	0x3d43f8c2	0.047844656
41	0xbc169233	-0.00919013
42	0x3ca7cd56	0.020483654
43	0x3cbd97ab	0.02314361
44	0x3bb4a3bd	0.005512683
45	0xbd64548a	-0.055744685
46	0x3b274027	0.0025520416
47	0xbcfe7a48	-0.031064168
48	0x3d14bb81	0.03631163
49	0xbbbf01ec	-0.0058290865
50	0xbc98f4dc	-0.018671446
51	0xbd60897e	-0.054818623
52	0xbc9f651e	-0.019457396
53	0x3d274522	0.040837415
54	0x3cdd903f	0.027046321
55	0xbcfbb1f7	-0.030724509
56	0xbca279cf	-0.019833473
57	0x3cdf679e	0.027271088
58	0x3d5f6b27	0.054545548
59	0xbd25553e	-0.040364496
60	0x3d48581c	0.048912153
61	0xbca21a7f	-0.019788025
62	0xbca485de	-0.020083364
63	0xbcf2b332	-0.029626463

conv.5.weight f4 [64]
0	0x3f7e64ec	0.99372745
1	0x3f7e9046	0.99438894
2	0x3f80bfd9	1.0058547
3	0x3f8056ce	1.0026491
4	0x3f7e7878	0.9940257
5	0x3f7dfa8f	0.9921045
6	0x3f7ea26a	0.99466574
7	0x3f80d899	1.00661
8	0x3f80d1c1	1.0064012
9	0x3f80a06a	1.0048954
10	0x3f7e0aa5	0.9923499
11	0x3f80a29f	1.0049628
12	0x3f7e6dfb	0.99386567
13	0x3f80968f	1.0045947
14	0x3f7defdd	0.9919413
15	0x3f804509	1.0021068
16	0x3f80c04e	1.0058687
17	0x3f80d610	1.0065327
18	0x3f80c435	1.0059878
19	0x3f7e0600	0.99227905
20	0x3f80ae56	1.0053203
21	0x3f7e5a42	0.9935647
22	0x3f7e325e	0.99295604
23	0x3f7df673	0.99204177
24	0x3f811a34	1.0086122
25	0x3f7f0368	0.9961457
26	0x3f80cf23	1.0063213
27	0x3f7ec6f6	0.9952234
28	0x3f7edd80	0.9955673
29	0x3f80ae3c	1.0053172
30	0x3f80b2e2	1.0054591
31	0x3f809057	1.0044049
32	0x3f810e0d	1.0082413
33	0x3f7e864f	0.9942369
34	0x3f7e0237	0.9922213
35	0x3f7dfbcd	0.9921234
36	0x3f80e181	1.0068818
37	0x3f7e292c	0.99281573
38	0x3f810fd9	1.0082961
39	0x3f80bec2	1.0058215
40	0x3f80d8a2	1.0066111
41	0x3f7dd217	0.99148697
42	0x3f80f5f8	1.0075064
43	0x3f7e79af	0.99404424
44	0x3f80e8cd	1.0071045
45	0x3f7f8d62	0.9982511
46	0x3f7e8c33	0.9943268
47	0x3f8103ef	1.0079325
48	0x3f80f487	1.0074624
49	0x3f80c856	1.0061138
50	0x3f7eb6ed	0.9949787
51	0x3f7e5cb3	0.993602
52	0x3f80f31e	1.0074193
53	0x3f8065f2	1.0031111
54	0x3f80a9d9	1.0051833
55	0x3f7eb2df	0.99491686
56	0x3f80cb14	1.0061975
57	0x3f7e9650	0.9944811
58	0x3f7ef047	0.99585384
59	0x3f807004	1.0034184
60	0x3f7eb2e0	0.9949169
61	0x3f7f21f4	0.99661183
62	0x3f7e1aa2	0.9925939
63	0x3f80c5d9	1.0060378

conv.5.bias f4 [64]
0	0xbbc51006	-0.006013873
1	0xbb98278e	-0.004643387
2	0x3ba7fb2e	0.0051263785
3	0x3bfc346a	0.007696678
4	0xbbb97484	-0.0056596417
5	0xbbf78fac	-0.007554969
6	0x3bfe162c	0.007754108
7	0x3bef3f8d	0.007301277
8	0xbb917770	-0.004439287
9	0xbbfd9cc7	-0.0077396366
10	0xbbac5d10	-0.0052601174
11	0x3bb7c372	0.0056080157
12	0xbbc3fc23	-0.005980985
13	0x3b50ea30	0.0031877868
14	0xbc0126b7	-0.0078827655
15	0xbba33cad	-0.0049815984
16	0x3c05d71d	0.008168963
17	0x3bd024c5	0.0063520395
18	0x3bb0d9bc	0.0053970497
19	0xbbf80c29	-0.007569809
20	0x3bd441df	0.006477579
21	0xbbc4424a	-0.0059893476
22	0xbbdf475b	-0.006813926
23	0xbbe7150c	-0.0070520695
24	0x3c0072d1	0.007839874
25	0xbb8955bd	-0.004191129
26	0x3bdd972b	0.0067624054
27	0xbbbe382e	-0.005805037
28	0xbb4ecf35	-0.003155661
29	0x3ba7bf22	0.0051192204
30	0x3bc07ad0	0.0058740154
31	0x3bb64172	0.005562001
32	0x3c0285d6	0.007966479
33	0xbbc9f5ab	-0.006163319
34	0xbc0ceeb6	-0.008601835
35	0xbbe9469c	-0.007119013
36	0x3bed1893	0.0072355955
37	0xbbe7e3ab	-0.0070767007
38	0xbb751b2c	-0.003740023
39	0x3bc35d9d	0.0059620873
40	0x3be4a92a	0.0069781737
41	0xbbea843c	-0.007156877
42	0xbbfef5df	-0.007780775
43	0x3ba544d0	0.0050436035
44	0xbb417205	-0.0029517424
45	0xbab95d2f	-0.0014142151
46	0xbb29c092	-0.0025902134
47	0x3c059c57	0.00815495
48	0x3c0d24de	0.008614747
49	0x3bb1e8c0	0.0054293573
50	0x390fe5fe	0.00013723221
51	0xbba7f490	-0.0051255897
52	0x3bf98bb3	0.0076155304
53	0xbc12ef60	-0.008968204
54	0xbb2e2e24	-0.0026577795
55	0xbbdd5911	-0.0067550023
56	0x3bf709dd	0.0075390176
57	0xbb959324	-0.0045646597
58	0xbb821896	-0.003970216
59	0x3c0184b7	0.007905177
60	0xbb351786	-0.002763243
61	0xbbcd4dfc	-0.0062654
62	0xbbfb92eb	-0.007677426
63	0x3be92860	0.007115409

conv.5.running_mean f4 [64]
0	0xbe74e6e8	-0.23916209
1	0xbe978aad	-0.2959799
2	0x3e85b820	0.2611704
3	0xbf2fa3a5	-0.68609077
4	0x3f1fdbef	0.6244497
5	0xbe103e24	-0.14086205
6	0xbf63033e	-0.8867682
7	0xbf1d1b89	-0.6137014
8	0xbea53323	-0.32265577
9	0x3e8f498f	0.27985808
10	0x3eab89f6	0.33503693
11	0x3e5c6a7f	0.21525
12	0x3da84299	0.082158275
13	0x3edc9883	0.43085107
14	0x3f0625ce	0.52401435
15	0xbe110d71	-0.14165284
16	0x3edd366e	0.4320559
17	0x3ecacb0f	0.39608046
18	0xbf137bec	-0.57610965
19	0xbdc4e9d7	-0.09614914
20	0x3f71640e	0.94293296
21	0x3c29b1ae	0.010357304
22	0xbe3d92dc	-0.18513054
23	0xbe4f125f	-0.20221852
24	0x3e9b0275	0.30275312
25	0x3bc0645e	0.0058713397
26	0x3e24fc2a	0.16111818
27	0xbc785173	-0.015156138
28	0xbcc4c779	-0.024020897
29	0xbde18e3c	-0.11013457
30	0xbe0cae4d	-0.13738365
31	0x3dc055a7	0.09391337
32	0xbd7bdf5a	-0.0614923
33	0xbf615bb5	-0.8803056
34	0xbf04b030	-0.5183134
35	0x3d82f0ff	0.063936226
36	0x3dd5f01b	0.10446187
37	0x3edc0d49	0.42978886
38	0x3e87e448	0.26541352
39	0x3eabae70	0.33531523
40	0x3db1aa09	0.0867501
41	0x3e69a82d	0.2281806
42	0x3de92cf3	0.113855265
43	0xbea7c807	-0.32769796
44	0x3f087bff	0.53314203
45	0xbf277752	-0.65416443
46	0xbea4c13a	-0.3217867
47	0x3c5180b7	0.012787036
48	0x3ef78fb4	0.48351824
49	0x3d97c0fe	0.07409857
50	0x3d8c3b27	0.0684722
51	0x3eb2b7ba	0.34905797
52	0x3edad7cb	0.42742762
53	0xbf41ae52	-0.75656617
54	0x3f15a216	0.5845045
55	0xbf0a827b	-0.5410535
56	0x3c0b609f	0.008506923
57	0x3d90970f	0.07060062
58	0xbf260d36	-0.6486391
59	0x3e5e8218	0.21729314
60	0xbe52b074	-0.20575124
61	0xbe29c375	-0.16578467
62	0xbf4e57cc	-0.8060272
63	0x3e2c02ed	0.16797991

conv.5.running_var f4 [64]
0	0x3eab2a79	0.33430842
1	0x3e4ac403	0.19801335
2	0x3e142b1a	0.14469567
3	0x3ed160eb	0.40894255
4	0x3ef69213	0.4815832
5	0x3e197be6	0.1498867
6	0x3f0f5bc7	0.55999416
7	0x3e92b1ce	0.2865128
8	0x3e2b97ba	0.16757098
9	0x3eba34f5	0.36368528
10	0x3e914657	0.28373978
11	0x3e0f9068	0.1401993
12	0x3e294697	0.16530834
13	0x3f17d778	0.59313154
14	0x3fa6b0bb	1.3022684
15	0x3e2d601f	0.16931199
16	0x3e4c31c8	0.19940865
17	0x3e4fe128	0.20300734
18	0x3ea629ae	0.32453674
19	0x3e1dfe38	0.15429008
20	0x3f3b8cf3	0.73261946
21	0x3ed19592	0.40934426
22	0x3e576517	0.21034656
23	0x3f2abc14	0.66693234
24	0x3f2c6581	0.6734238
25	0x3e6234bb	0.22090428
26	0x3eaa46ae	0.3325705
27	0x3dd3a66a	0.10334475
28	0x3f1a1911	0.601945
29	0x3e27ae94	0.1637519
30	0x3e518815	0.20462067
31	0x3dfac84e	0.12245236
32	0x3eaf5f87	0.3425257
33	0x3f74439e	0.95415676
34	0x3e4d29bf	0.20035456
35	0x3e5c028b	0.21485345
36	0x3e9f27db	0.31085095
37	0x3ef853b8	0.48501372
38	0x3f11995b	0.56874627
39	0x3e5537c1	0.2082205
40	0x3e61d66a	0.22054449
41	0x3ea4a7c1	0.32159236
42	0x3e1844f5	0.14870055
43	0x3e13897e	0.14407918
44	0x3eed2b04	0.4632188
45	0x3f0110bd	0.50416166
46	0x3f45853d	0.7715643
47	0x3e1ba879	0.15200986
48	0x3e394e94	0.18096381
49	0x3f5fceff	0.87425226
50	0x3f120310	0.57035923
51	0x3f47b5ab	0.7801158
52	0x3e761c7e	0.24034306
53	0x3f4c529b	0.79813546
54	0x3f681731	0.9066039
55	0x3ec78417	0.38967964
56	0x3e03c452	0.12867859
57	0x3e45eaed	0.19327898
58	0x3ed9ab6e	0.42513603
59	0x3e9799dc	0.29609573
60	0x3efd3118	0.49451518
61	0x3f11cf6f	0.56957144
62	0x3f236185	0.6382068
63	0x3ef23e3d	0.4731311

conv.8.weight f4 [128, 64, 3, 3]
0	0x3b993750	0.004675783
1	0x3d01eae8	0.031718165
2	0xbd1746e3	-0.036932837
3	0x3be5497f	0.006997287
4	0x3d33cc41	0.043895964
5	0xbce17a64	-0.02752418
6	0x3cf3d0d9	0.029762672
7	0xbb494da8	-0.0030716453
8	0xbd10406d	-0.03521769
9	0x3d18ce71	0.037306253
10	0x3d4045bc	0.046941504
11	0xbb28362e	-0.002566706
12	0x3d044c27	0.032299187
13	0x3cccac9d	0.024984652
14	0xbb1f1383	-0.0024273105
15	0x3ce55afb	0.027997484
16	0x3d2ca16f	0.042146143
17	0xbbea7e73	-0.007156187
18	0x3d2dbc81	0.0424161
19	0x3c2415c1	0.010014952
20	0xbd205402	-0.039142616
21	0x3c982943	0.018574363
22	0xbd0f3529	-0.034962807
23	0x3cbf6840	0.02336514
24	0xbcd57361	-0.026055994
25	0x3d1ed1c0	0.038774252
26	0xbd2c08d8	-0.04200062
27	0x3cf3b2cb	0.029748341
28	0xbc8d61d2	-0.017258558
29	0x3b13a462	0.00225284
30	0xbbf78009	-0.007553105
31	0xbcaa7fe1	-0.02081293
32	0x3ca31299	0.019906329
33	0xbc7d7e35	-0.015471985
34	0x3cd10e99	0.025519656
35	0x3be207e8	0.006897915
36	0xbc157cb8	-0.009123974
37	0x3c7a5bf6	0.015280714
38	0x3c3ba9e8	0.011454083
39	0xbd2bee10	-0.04197508
40	0xbc044358	-0.008072697
41	0xbd14f89b	-0.0363699
42	0x3d2e4f9f	0.0425564
43	0xbc82345a	-0.015894104
44	0xbcee5e75	-0.029097775
45	0xbcc50c8d	-0.024053836
46	0x3c8bbbc1	0.017057301
47	0xbc974f24	-0.018470354
48	0xbc24cb94	-0.010058302
49	0x3cdc9a01	0.026928904
50	0x3d126039	0.035736296
51	0xb92e19c2	-0.00016603529
52	0x3c47109d	0.012149957
53	0x3ca14fa4	0.019691296
54	0x3d10c345	0.035342474
55	0x3cf0a421	0.029375138
56	0x3c9e8622	0.019351069
57	0xbc608ed2	-0.013705926
58	0x3d239984	0.039941326
59	0xbc80df18	-0.01573138
60	0x39976731	0.00028877848
61	0xbce17188	-0.027519956
62	0x3c6c0d09	0.014407405
63	0xbcbb94e6	-0.022898149
64	0x3c2983b9	0.010346347
65	0xbcdebf7f	-0.027190922
66	0x3bcabaa6	0.006186801
67	0xbcb27320	-0.021783412
68	0xbbcae4a1	-0.0061918055
69	0x3c3fabfe	0.011698721
70	0x3c043d2e	0.008071227
71	0x3d1c5df3	0.038175534
72	0xbcdf0fc6	-0.027229201
73	0xbb9ec21d	-0.0048449175
74	0x3d095330	0.0335266
75	0x3c889bbb	0.01667582
76	0xbb4a5fca	-0.0030879849
77	0x3cdfff3f	0.02734339
78	0xbc2dd079	-0.010608786
79	0xbd1d6b7f	-0.038432594
80	0x3b94a41d	0.0045361654
81	0x3cc8c9f5	0.024510363
82	0x3cde6836	0.027149301
83	0xbc9eb892	-0.01937512
84	0xbd37c393	-0.04486425
85	0x3c4d907a	0.012546653
86	0xbc877e61	-0.016539754
87	0xbcb980a5	-0.02264435
88	0x3d34d556	0.044148766
89	0x3c2c0306	0.010498768
90	0x3c217eb2	0.009856867
91	0xbd345a1d	-0.04403125
92	0x3c28dc45	0.010306423
93	0x3c598e2a	0.013278523
94	0xbc9fa7ab	-0.01948913
95	0xbb053c96	-0.0020330301
96	0x3cb8bfb5	0.02255235
97	0x3ba3d6b1	0.0049999584
98	0x3c5c9046	0.013462132
99	0x3d0b3f7a	0.033996083
100	0xbd128c73	-0.035778474
101	0x3c8d4dad	0.017248953
102	0xbd4714f9	-0.048603985
103	0x3cd93fe0	0.026519716
104	0x3cbe8753	0.023257887
105	0x3d09118c	0.033464
106	0x3d45d6ea	0.04830066
107	0xbce79a4a	-0.028271813
108	0xbcc5622d	-0.024094665
109	0xbc7e3cf4	-0.015517462
110	0x3cebdd2a	0.028791983
111	0x3cbd70c4	0.02312506
112	0x3c2b5e33	0.010459471
113	0xbca116fe	-0.019664284
114	0x3c3302be	0.010925947
115	0xbb66cf13	-0.003521864
116	0x3b4fe7c3	0.0031723834
117	0xbcfb7d85	-0.0306995
118	0x3a35f382	0.00069408875
119	0xbcb53911	-0.022121938
120	0x3cebc70f	0.028781442
121	0xbd17f678	-0.037100285
122	0xbb000a26	-0.00195373
123	0x3a527af4	0.00080291857
124	0x3cb55e94	0.022139825
125	0x3c818698	0.01581125
126	0x3c756237	0.0149770295
127	0xbcaf5eb6	-0.021407466
128	0xbd3050dc	-0.043045864
129	0x3c921efe	0.017837044
130	0xbb6fb009	-0.003657343
131	0xbcf0d6d4	-0.029399313
132	0xbd13b7a8	-0.03606382
133	0xbd12e0e0	-0.03585899
134	0x3cb32180	0.02186656
135	0xbd0142f6	-0.031558
136	0x3be2373f	0.0069035585
137	0xbce8ba31	-0.028409095
138	0xbcbd5b10	-0.023114711
139	0xbce0c4b0	-0.027437538
140	0xbcf4716f	-0.029839246
141	0xbd0b5ecb	-0.03402595
142	0xbbd4c873	-0.006493622
143	0xbb4b5c8e	-0.0031030509
144	0xbcefb406	-0.029260647
145	0x3c8c1a71	0.017102452
146	0xbb7b27e9	-0.003832335
147	0x3c88f02d	0.016716087
148	0xbd0c0ad0	-0.03419
149	0x3d0e30b9	0.034714434
150	0xbc1436e8	-0.009046294
151	0x3cd5cb23	0.02609784
152	0xbcdbee94	-0.026847161
153	0xbd141613	-0.036153864
154	0xbcbfeefb	-0.023429384
155	0xbd0b0dfc	-0.033948883
156	0x3d30afea	0.043136515
157	0x3d00325c	0.031298026
158	0x3c8b5a64	0.017010875
159	0x3cbff651	0.023432883
160	0x3c48065d	0.012208548
161	0x3cbe46ba	0.023227084
162	0x3cad28d6	0.021137636
163	0xbc7b2764	-0.015329216
164	0xbcef1816	-0.02918629
165	0x3ce59d19	0.028029012
166	0xbc923274	-0.017846324
167	0xbc60e9cc	-0.0137276165
168	0xbd351d20	-0.04421723
169	0xbcadfb6b	-0.02123805
170	0xbc63f61f	-0.01391366
171	0xbcbfc667	-0.023410035
172	0xbc36a734	-0.011148263
173	0xbb761b8a	-0.0037553036
174	0x3c436033	0.011924791
175	0x3cf050d1	0.029335411
176	0x3c8aabd5	0.016927639
177	0x3ce7567d	0.028239483
178	0xbbdf8941	-0.006821782
179	0xbd1b94a9	-0.03798357
180	0xbc0a528b	-0.008442531
181	0x3cba35e3	0.022730773
182	0x3c31d206	0.010853296
183	0xbbb88fba	-0.005632368
184	0xbd442819	-0.047889803
185	0xbcd4d881	-0.025982143
186	0xbac67bf3	-0.0015143141
187	0xbd075774	-0.033042386
188	0x3a45df7e	0.00075482565
189	0xba0a92f4	-0.000528618
190	0xbd3632b5	-0.04448195
191	0x3d0b82fe	0.03406047
192	0xbd0b6848	-0.034034997
193	0xbbb628ea	-0.0055590766
194	0xbd3a404e	-0.045471482
195	0x3ce695e2	0.028147642
196	0x3cd2fd47	0.025755538
197	0x3ceb4149	0.028717654
198	0x3bb46ddd	0.005506261
199	0x3cf12bdf	0.029439865
200	0x3b6c3d00	0.00360471
201	0x3d295e99	0.04134998
202	0xbc140318	-0.009033941
203	0xbbde53d8	-0.0067848973
204	0xbc03bc12	-0.008040445
205	0xb9b817e1	-0.00035113006
206	0x3c958259	0.018250631
207	0x3bd44f6e	0.0064791953
208	0x3bdfb939	0.0068275
209	0x3cb8785a	0.022518326
210	0xbca4db43	-0.020124083
211	0x3c38d1b3	0.011280465
212	0xbb536427	-0.003225574
213	0xbca93f21	-0.020659985
214	0xbcecc8d4	-0.028904356
215	0xbcb52467	-0.022112085
216	0x3cb6066b	0.022219857
217	0xbc983956	-0.018582027
218	0xbb839b2e	-0.0040163016
219	0x3aa02724	0.0012218696
220	0x3c56998f	0.013098135
221	0xbc335b45	-0.010947053
222	0xbced9f6e	-0.029006686
223	0xbb559195	-0.0032587994
224	0xbbf64772	-0.007515841
225	0xbc21f8ac	-0.009885948
226	0xbcd02a30	-0.025410742
227	0xbc95e94e	-0.018299725
228	0xbbe6fdf1	-0.007049315
229	0x3bc0351a	0.005865705
230	0xbc337ff1	-0.010955797
231	0xbccf88ab	-0.025333723
232	0x3c2fcb1f	0.01072958
233	0x3cd166f1	0.025561782
234	0xbcb73c48	-0.022367612
235	0xbc88529f	-0.01664096
236	0xbd1b1be7	-0.037868407
237	0x3cec450b	0.028841516
238	0xbcc96f9f	-0.024589358
239	0xb9864a82	-0.00025613984
240	0x3c84208e	0.016128805
241	0xbcad102c	-0.021125875
242	0xbcfb20ef	-0.030655352
243	0x3d3a9554	0.045552567
244	0x3d330a98	0.043711275
245	0x3ca7452b	0.020418724
246	0xbd15874a	-0.036505975
247	0xbacffc8a	-0.0015868109
248	0x3d22198b	0.03957514
249	0x3d057c76	0.0325894
250	0x3ccedad8	0.025250837
251	0xbc681f8e	-0.0141676795
252	0xbbc124c1	-0.005894274
253	0x3c18ec20	0.00933364
254	0xbd073991	-0.033013884
255	0xbd0e390d	-0.034722377

conv.8.bias f4 [128]
0	0xbbd69099	-0.006547999
1	0xbd14d70a	-0.03633789
2	0x38b08682	8.417388e-05
3	0xbd243f24	-0.040099278
4	0xbcbecd7b	-0.02329134
5	0x3ce8fd79	0.028441178
6	0x3b968bbb	0.004594294
7	0x3d25466c	0.040350363
8	0xbcc7f86c	-0.024410449
9	0xbc3887b2	-0.011262821
10	0xbb22615b	-0.0024777267
11	0x3d00ec93	0.031475615
12	0x3c4d5d63	0.012534472
13	0x3bbd0fbe	0.005769699
14	0xbd0784e9	-0.033085737
15	0xbbc965b4	-0.006146157
16	0xbcf37679	-0.029719578
17	0xbc9a4e82	-0.018836264
18	0x3c318b27	0.010836399
19	0x3cabddaa	0.020979721
20	0xbd1afa49	-0.037836347
21	0xbad78f2e	-0.0016445869
22	0x3b7b1144	0.0038309852
23	0x3b8bc50d	0.0042654336
24	0xbd2964a5	-0.041355748
25	0xbc959c76	-0.018263083
26	0x3c640b23	0.013918671
27	0xbb082ae9	-0.002077753
28	0x3cdae4ed	0.026720488
29	0xba635bb5	-0.0008673028
30	0x3ccce012	0.025009189
31	0xbbabc05f	-0.0052414383
32	0x3bc1bf4a	0.005912696
33	0xbcac0f2b	-0.021003326
34	0x3c0f58fe	0.008749245
35	0x3caf843e	0.021425363
36	0x3b1633cf	0.0022919064
37	0xbabbf59a	-0.0014340163
38	0x3cb2a5e7	0.021807624
39	0xbba4ac64	-0.0050254334
40	0xbbfaf28f	-0.00765831
41	0xbc9d0db3	-0.019171571
42	0x3c1bca62	0.009508701
43	0x3c8d9a85	0.017285595
44	0x3cad26fb	0.021136751
45	0x3caa043e	0.020753976
46	0x3b0f4293	0.002185975
47	0xbcee0094	-0.02905301
48	0x3c8b03e0	0.016969621
49	0x3bd71635	0.0065639266
50	0x3ca3749d	0.019953066
51	0xbcd0298c	-0.025410436
52	0x3ca89e08	0.020583168
53	0x3c84b125	0.01619775
54	0xbd108eb7	-0.035292353
55	0x3b834c5d	0.004006906
56	0xbb9cca5d	-0.004784866
57	0x3c3e2513	0.011605519
58	0x3cd6eee1	0.026236953
59	0x3cb499fe	0.022046085
60	0xbcced7a4	-0.02524931
61	0xbbeeb456	-0.0072846813
62	0xbcad3c97	-0.021147056
63	0xbd273d77	-0.0408301
64	0x3d223479	0.039600823
65	0x3cf5ab5e	0.02998894
66	0x3c8329ed	0.016011203
67	0xbcecdf08	-0.028914943
68	0x3d02aa54	0.03190072
69	0x3cc8f823	0.024532383
70	0xbcc97c91	-0.02459553
71	0xbba8b2a2	-0.005148248
72	0x3c63796b	0.013883929
73	0xbcefd999	-0.029278563
74	0x3d2223e1	0.039584998
75	0xbca63e20	-0.020293295
76	0xbd0272d4	-0.03184779
77	0x3d010263	0.031496417
78	0xbbc02058	-0.0058632307
79	0x3c5d04f5	0.013489951
80	0x3cedf514	0.029047526
81	0xbbe73ff1	-0.007057183
82	0x3d13ccda	0.036084034
83	0x3ab6a21e	0.0013933813
84	0xbce38fca	-0.027778525
85	0x3b8b52a3	0.0042517944
86	0x3d0316f3	0.032004308
87	0x3c22d88b	0.009939323
88	0xbbeff4a3	-0.007322864
89	0xbbacd5ea	-0.005274524
90	0xbbc1433e	-0.0058979085
91	0xbcfa70e4	-0.030571409
92	0xbc14f725	-0.009092127
93	0x3c21e69e	0.009881644
94	0x3ce20e4b	0.027594706
95	0x3cbc5061	0.022987546
96	0x3ce212ec	0.027596913
97	0xbd0b9f72	-0.034087606
98	0xbc62cfb4	-0.013843466
99	0xbcbe9e5b	-0.02326887
100	0xb9edda2e	-0.0004536672
101	0x3cc16b42	0.023610715
102	0x3ce92df4	0.028464295
103	0x3d25cc41	0.040477995
104	0xbc2bd89a	-0.010488654
105	0x3c93730f	0.0179992
106	0xbd1cbf43	-0.03826834
107	0xbc317d9b	-0.010833169
108	0x3c895942	0.016766194
109	0x3c9d14c2	0.019174937
110	0x3cd3a91b	0.025837472
111	0xbd19b4b0	-0.037525833
112	0x3d284fc7	0.041091707
113	0x3d28604c	0.04110746
114	0xbccaad31	-0.024740787
115	0x3cf41cce	0.029798891
116	0x3c3f86f4	0.01168989
117	0xbc7d37d8	-0.015455209
118	0xbc1bded8	-0.009513579
119	0xbb496990	-0.0030733086
120	0xbb24083f	-0.002502933
121	0xbc4286b6	-0.011872938
122	0xbc90b1dd	-0.017662937
123	0x3cc27cb6	0.023741107
124	0x3d148503	0.036259662
125	0x3c39a43e	0.011330662
126	0xbd02e5f2	-0.031957574
127	0x3d1bd803	0.0380478

conv.9.weight f4 [128]
0	0x3f7f188b	0.99646825
1	0x3f80ee77	1.0072774
2	0x3f7e79c4	0.9940455
3	0x3f80e7f7	1.007079
4	0x3f7f36c8	0.99692965
5	0x3f7edf69	0.99559647
6	0x3f7ea133	0.9946472
7	0x3f80bfdc	1.0058551
8	0x3f7e938b	0.9944388
9	0x3f7e9a74	0.99454427
10	0x3f80d89c	1.0066104
11	0x3f7e5ae9	0.9935747
12	0x3f7e8375	0.9941934
13	0x3f80efe1	1.0073205
14	0x3f7e7d84	0.9941027
15	0x3f7f3ecb	0.9970519
16	0x3f80f1d4	1.00738
17	0x3f7efdf4	0.9960625
18	0x3f80f507	1.0074776
19	0x3f7f2694	0.9966824
20	0x3f7f16d3	0.996442
21	0x3f80dd48	1.006753
22	0x3f80dd6c	1.0067573
23	0x3f7e5390	0.99346256
24	0x3f7ecce6	0.995314
25	0x3f7e91e3	0.99441355
26	0x3f80fdb4	1.0077424
27	0x3f810620	1.0079994
28	0x3f811bd4	1.0086617
29	0x3f8113ac	1.0084128
30	0x3f7e5899	0.9935394
31	0x3f7e9d09	0.99458367
32	0x3f8114bd	1.0084454
33	0x3f7ebee7	0.99510044
34	0x3f7e75e7	0.99398655
35	0x3f7e958a	0.9944693
36	0x3f810cd2	1.0082037
37	0x3f7eb587	0.9949574
38	0x3f7ef95d	0.9959925
39	0x3f7f03d4	0.99615216
40	0x3f811948	1.008584
41	0x3f8107f7	1.0080556
42	0x3f80e330	1.0069332
43	0x3f7f14c5	0.99641067
44	0x3f812002	1.0087893
45	0x3f7e76e8	0.99400187
46	0x3f80ee73	1.0072769
47	0x3f7e7ef1	0.9941245
48	0x3f801bf9	1.0008537
49	0x3f803050	1.0014744
50	0x3f7e60ca	0.9936644
51	0x3f7ed543	0.9954416
52	0x3f7f2495	0.99665195
53	0x3f808104	1.0039372
54	0x3f8110b8	1.0083227
55	0x3f7ec8db	0.9952523
56	0x3f7f8e89	0.99826866
57	0x3f80ee76	1.0072773
58	0x3f810975	1.0081011
59	0x3f80ec6b	1.0072149
60	0x3f7e3b5f	0.99309343
61	0x3f80f316	1.0074184
62	0x3f7f1ecd	0.99656373
63	0x3f7e9d1c	0.9945848
64	0x3f8114f9	1.0084525
65	0x3f7f5ba6	0.9974922
66	0x3f808b98	1.0042601
67	0x3f7fec70	0.9997015
68	0x3f7e65a9	0.9937387
69	0x3f80e88e	1.007097
70	0x3f811ab9	1.008628
71	0x3f7e8e24	0.9943564
72	0x3f7f2b6d	0.9967564
73	0x3f7eeed2	0.9958316
74	0x3f81065b	1.0080065
75	0x3f7e5812	0.99353135
76	0x3f8101a0	1.0078621
77	0x3f7e9a1d	0.9945391
78	0x3f7e3276	0.9929575
79	0x3f7ec468	0.9951844
80	0x3f7ea111	0.9946452
81	0x3f809f72	1.0048659
82	0x3f7f4188	0.9970937
83	0x3f809b8b	1.0047468
84	0x3f800a00	1.0003052
85	0x3f7f30bf	0.99683756
86	0x3f7e8382	0.99419415
87	0x3f800cf9	1.0003959
88	0x3f7e85f1	0.9942313
89	0x3f80320a	1.0015271
90	0x3f7e762b	0.9939906
91	0x3f80f7ae	1.0075586
92	0x3f7edf2f	0.995593
93	0x3f7e74e8	0.99397135
94	0x3f7e902e	0.9943875
95	0x3f80f876	1.0075824
96	0x3f7ee1c4	0.9956324
97	0x3f7e79dd	0.994047
98	0x3f80f6da	1.0075333
99	0x3f80f906	1.0075996
100	0x3f80acf7	1.0052785
101	0x3f7e89e9	0.99429184
102	0x3f80e652	1.0070288
103	0x3f8101eb	1.007871
104	0x3f80e43d	1.0069653
105	0x3f80ff22	1.007786
106	0x3f803924	1.0017438
107	0x3f7e93e2	0.994444
108	0x3f80a5a2	1.0050547
109	0x3f80e9db	1.0071367
110	0x3f80f3c9	1.0074397
111	0x3f81111b	1.0083345
112	0x3f7e6f83	0.99388903
113	0x3f80a371	1.0049878
114	0x3f7e5ce8	0.99360514
115	0x3f80ef10	1.0072956
116	0x3f80ac9b	1.0052675
117	0x3f80fdf6	1.0077503
118	0x3f80a5a2	1.0050547
119	0x3f80dcaa	1.0067341
120	0x3f7fe237	0.9995455
121	0x3f812dff	1.0092162
122	0x3f7eb6ca	0.99497664
123	0x3f80e1bf	1.0068892
124	0x3f80d36e	1.0064523
125	0x3f7ebf8d	0.99511033
126	0x3f7e7fca	0.9941374
127	0x3f7eb920	0.9950123

conv.9.bias f4 [128]
0	0xbb150957	-0.0022741163
1	0x3c043e95	0.008071561
2	0xbbbd4d63	-0.0057770475
3	0x3bdff555	0.006834666
4	0xb9c9b6cd	-0.00038473905
5	0xbb999db4	-0.004687989
6	0xbb9b54ae	-0.004740319
7	0x3bb8f090	0.0056439117
8	0xbbbd7866	-0.005782175
9	0xbb93318f	-0.004491992
10	0x3bdaf93b	0.0066825426
11	0xbbda500d	-0.006662375
12	0xbbccdec0	-0.00625214
13	0xba8ef49b	-0.0010906638
14	0xbbc3a91f	-0.0059710885
15	0xbb4ae1d5	-0.003095736
16	0x3c104baa	0.008807102
17	0xbb973b6a	-0.004615237
18	0x3bea3c03	0.0071482672
19	0x39cc71be	0.00038994657
20	0xba35598a	-0.00069179444
21	0x3bdf68d5	0.006817917
22	0x3be4578f	0.0069684456
23	0xbbd7f9c0	-0.006591052
24	0xbb9800fa	-0.0046387883
25	0xbbbc2db4	-0.005742753
26	0x3c090c59	0.00836476
27	0x3c0cc9df	0.008593052
28	0x3c0671ba	0.008205825
29	0x3c0b673d	0.008508501
30	0xbbe30773	-0.0069283783
31	0xbbaad1ad	-0.0052129836
32	0x3bf8f9fc	0.00759816
33	0xbbb187e4	-0.0054178108
34	0xbbc7f20a	-0.0061018514
35	0xbbbb5a88	-0.0057175793
36	0x3c04593e	0.008077918
37	0xbbbf8817	-0.0058450806
38	0xbb5cd057	-0.0033693516
39	0x3a85ced8	0.0010208739
40	0x3b7fe80e	0.0039048227
41	0x3c07d9d9	0.008291685
42	0x3be706e0	0.00705038
43	0xbbc90139	-0.006134179
44	0x3c0c12cf	0.008549406
45	0xbbcc1d88	-0.0062291063
46	0x3bf45153	0.0074559837
47	0xbbc28238	-0.0059359334
48	0xbb41e000	-0.0029582977
49	0x3c0fb573	0.008771288
50	0xbbd707e8	-0.006562222
51	0xbba7b175	-0.00511759
52	0xbb1dbc7a	-0.002406864
53	0x3aeb35df	0.0017945132
54	0x3c0214af	0.007939502
55	0xbab90ac7	-0.0014117592
56	0xbbee987e	-0.007281362
57	0x3c08365e	0.008313743
58	0x3bf8bcf8	0.007590886
59	0x3be8c19c	0.007103158
60	0xbbe519ad	-0.006991586
61	0x3c0d244b	0.00861461
62	0xbbadc225	-0.005302685
63	0xbbb99166	-0.005663085
64	0x3c006f28	0.007839002
65	0xbba702a9	-0.0050967527
66	0x39d81a25	0.0004121821
67	0xb9d4b250	-0.00040568644
68	0xbbdca7b5	-0.0067338594
69	0x3c027791	0.007963077
70	0x3ac9781b	0.0015370877
71	0x3b19c166	0.0023461222
72	0xbb3838a0	-0.0028109923
73	0xbbb364c2	-0.0054746578
74	0x3c015663	0.007894131
75	0xbbbcb1cd	-0.0057585
76	0x3b63427e	0.0034677084
77	0xbbbddf0f	-0.005794413
78	0xbbb6376a	-0.005560805
79	0xbb44ce7c	-0.00300303
80	0xbad2b1c4	-0.0016074707
81	0x3c0d4aab	0.008623759
82	0xbaeffa13	-0.0018308781
83	0x3bb80c83	0.005616726
84	0x3c09fb12	0.008421676
85	0x3c01c2d7	0.007919989
86	0xbbc18a41	-0.0059063737
87	0xbb4339c1	-0.0029789063
88	0xbbbd2626	-0.00577237
89	0x3b7fd34f	0.0039035862
90	0xbbc86d3d	-0.006116538
91	0x3be41853	0.0069609075
92	0xbb1305fb	-0.0022433985
93	0xbbc17cab	-0.005904754
94	0xbbce105e	-0.006288572
95	0x3bf6aab7	0.007527675
96	0xbbaae6ff	-0.005215525
97	0xbbaff505	-0.005369785
98	0x390a572f	0.00013193184
99	0x3b50f22d	0.003188263
100	0x3c0678be	0.008207498
101	0xbbc9956d	-0.006151846
102	0x3c01dda0	0.007926375
103	0xbb87496c	-0.0041286256
104	0x3be1fca8	0.006896574
105	0x3c0ca833	0.008585024
106	0x3bf7e923	0.007565634
107	0xbbce25c0	-0.0062911212
108	0x3c0fa9a7	0.008768476
109	0x3bee27a2	0.007267908
110	0x3c02bcd8	0.007979594
111	0x3c0a9f9b	0.0084609045
112	0xbbcffbaa	-0.0063471394
113	0xbb404f13	-0.0029344007
114	0xbbc927ac	-0.0061387625
115	0x3be05364	0.0068458784
116	0x3b7e8ea9	0.0038842356
117	0x3be9eaec	0.0071386006
118	0x3bcf48c7	0.0063258144
119	0x3bf03a79	0.0073311892
120	0x3b691d05	0.0035570276
121	0x3be7e1c4	0.007076474
122	0xbb9c117e	-0.0047628274
123	0x3c006860	0.007837385
124	0x3bd0970c	0.0063656624
125	0xbb95edb2	-0.0045754546
126	0xbb1d1e82	-0.0023974483
127	0xbba68964	-0.005082296

conv.9.running_mean f4 [128]
0	0x3d463344	0.048388734
1	0x3f36a7f4	0.71350026
2	0xbf25bfd7	-0.6474585
3	0xbf62624b	-0.88431233
4	0xbea6cc56	-0.3257777
5	0x3d45ad0a	0.048260726
6	0xbf0bf42d	-0.5466946
7	0x3e8c0c4e	0.27353138
8	0xbed348a7	-0.41266367
9	0xbe9c5c05	-0.30538955
10	0x3f15275d	0.5826319
11	0xbf32dde2	-0.69869816
12	0x3f5ee252	0.8706409
13	0x3e1118bd	0.14169593
14	0xbf5c2bca	-0.86004317
15	0xbfa64b1d	-1.2991673
16	0x3ea62f9d	0.324582
17	0xbee9f6ae	-0.45696014
18	0xbf3ae561	-0.73006254
19	0x3ec8d19b	0.39222416
20	0xbe3d6c77	-0.18498407
21	0x3d98ee85	0.07467369
22	0x3ef549a9	0.4790776
23	0x3ea99e4d	0.33128586
24	0xbe273097	-0.1632713
25	0x3e8bb757	0.27288315
26	0x3e5d7f04	0.21630484
27	0xbf5e1db8	-0.867641
28	0xbeece57d	-0.46268836
29	0xbe455a6f	-0.19272779
30	0x3d0291fb	0.0318775
31	0xbe97ea19	-0.2967079
32	0x3e887c33	0.26657256
33	0x3eacc3eb	0.33743224
34	0x3ee5d386	0.44887942
35	0xbf30949e	-0.6897677
36	0x3f2f3700	0.684433
37	0x3e3ec597	0.18630062
38	0x3f07b6d0	0.53013325
39	0xbf83c506	-1.0294502
40	0x3eae6817	0.3406379
41	0x3ee643dd	0.4497365
42	0x3dab5b09	0.08366973
43	0x3f5481c2	0.83010495
44	0xbf6471c9	-0.8923612
45	0xbf1b64a0	-0.60700417
46	0xbe2b2ad3	-0.16715555
47	0x3e729633	0.23690109
48	0xbe5d6028	-0.21618712
49	0x3e0e7a91	0.13913943
50	0x3efba0cb	0.49146113
51	0xbf077169	-0.52907425
52	0xbf126c04	-0.5719607
53	0xbf59d3d0	-0.85088825
54	0x3eaba89d	0.3352708
55	0x3d9ff3ea	0.07810195
56	0x3ed125ff	0.408493
57	0xbf3407e3	-0.70324534
58	0x3ee92bed	0.45541325
59	0x3f4f37a6	0.8094429
60	0x3e697352	0.22797897
61	0x3f1c3f5c	0.6103418
62	0xbf9a31e3	-1.2046474
63	0xbee7d3bc	-0.45278728
64	0xbf04d487	-0.5188679
65	0xbedcbe1e	-0.43113798
66	0xbedd3e7d	-0.43211737
67	0xbf6c2b0a	-0.9225317
68	0xbe63bb32	-0.22239378
69	0x3e9c54e3	0.30533513
70	0x3f128d42	0.5724679
71	0x3f2606c5	0.6485408
72	0xbdcce059	-0.100037284
73	0xbe0e9770	-0.13924956
74	0x3f512caa	0.81708777
75	0xbea21a53	-0.3166071
76	0x3c907c95	0.01763753
77	0xbef42898	-0.4768722
78	0x3ea9c20f	0.33155867
79	0x3ea9b5b3	0.33146438
80	0x3ed507a1	0.41607383
81	0xbed98d48	-0.42490602
82	0x3ddbd36c	0.10733685
83	0xbebd6cfc	-0.3699721
84	0xbefc7eaf	-0.49315402
85	0x3f3ab651	0.7293444
86	0x3ea2e5ff	0.31816098
87	0xbf4d816b	-0.802756
88	0xbf3108a0	-0.69153786
89	0x3ec542c7	0.3852751
90	0xbf645110	-0.8918619
91	0x3e6935e2	0.22774461
92	0xbe23477a	-0.15945235
93	0xbec5073b	-0.3848208
94	0xbf3b4011	-0.7314463
95	0x3f35416a	0.7080294
96	0x3d7d17f6	0.06179043
97	0xbf5fa617	-0.8736281
98	0x3d37920e	0.044817023
99	0x3f02f416	0.51153696
100	0x3ef48c3d	0.47763243
101	0x3e3a09bb	0.18167774
102	0x3ee384ab	0.44437155
103	0x3ea55981	0.3229485
104	0x3f388539	0.7207828
105	0xbee2c46c	-0.44290483
106	0x3e829b69	0.25509194
107	0xbeba5a96	-0.36397237
108	0xbf294826	-0.66125715
109	0x3f1c7836	0.6112093
110	0x3f584636	0.84482133
111	0xbeb8dee5	-0.36107555
112	0xbfa5db71	-1.2957593
113	0x3f2bacb8	0.6706042
114	0x3ec2a797	0.38018486
115	0xbe3c20c0	-0.18371868
116	0xbca19598	-0.019724652
117	0x3e394660	0.18093252
118	0x3ec7a2bc	0.38991344
119	0x3d121f12	0.035674162
120	0xbe8ac761	-0.2710524
121	0x3e9c1f77	0.30492756
122	0x3ef19cf1	0.4719005
123	0x3f416bf9	0.7555538
124	0xbe94bc98	-0.29050136
125	0x3ecc4fba	0.39904577
126	0x3e942a34	0.28938448
127	0xbf85acbb	-1.0443338

conv.9.running_var f4 [128]
0	0x3f400464	0.750067
1	0x3e92825c	0.2861508
2	0x3ebd28ca	0.36945182
3	0x3f807283	1.0034946
4	0x3e73851a	0.23781243
5	0x3ec1001d	0.376954
6	0x3f119116	0.5686201
7	0x3e9ca55c	0.3059491
8	0x3f2f3b81	0.6845017
9	0x3eabf7e8	0.33587575
10	0x3f174551	0.59090143
11	0x3f26dc61	0.6518002
12	0x3f83f978	1.0310507
13	0x3ed9897c	0.42487705
14	0x3f024720	0.5088978
15	0x3f31031b	0.69145364
16	0x3ebaf33a	0.36513692
17	0x3e72c9c3	0.23709778
18	0x3e8ad189	0.27112988
19	0x3f034d41	0.51289755
20	0x3e3cb2e2	0.18427613
21	0x3ecc2115	0.3986899
22	0x3e9a2bcf	0.30111548
23	0x3f0ccfa7	0.5500435
24	0x3ebd766b	0.37004408
25	0x3e3a2e59	0.18181743
26	0x3eeec23f	0.46632573
27	0x3ee4f210	0.4471593
28	0x3ede2963	0.4339095
29	0x3f131c49	0.57465035
30	0x3ea2639c	0.3171662
31	0x3f1ba145	0.6079295
32	0x3eb0143f	0.34390447
33	0x3eca2480	0.39480972
34	0x3f05e291	0.5229884
35	0x3f397a7b	0.72452515
36	0x3edadb0e	0.4274525
37	0x3e843420	0.25821018
38	0x3e9fd9e8	0.31220937
39	0x3ea0cf40	0.3140812
40	0x3e9c7328	0.30556607
41	0x3e5cfc00	0.21580505
42	0x3e759715	0.23983414
43	0x3f11f197	0.5700926
44	0x3f282cf3	0.6569359
45	0x3f266b49	0.65007454
46	0x3ea1506a	0.31506664
47	0x3f1ca3b3	0.61187285
48	0x3e4b5c6b	0.19859473
49	0x3ec17fbd	0.3779277
50	0x3e7e306d	0.2482316
51	0x3eada9b4	0.33918536
52	0x3e9c4868	0.30523992
53	0x3f0ddc78	0.55414534
54	0x3e540ceb	0.20708053
55	0x3e4a3496	0.19746622
56	0x3ebe843e	0.37210268
57	0x3efd355e	0.49454778
58	0x3ea943f0	0.33059645
59	0x3edbcf1b	0.42931446
60	0x3eca9776	0.3956868
61	0x3ec2eb35	0.38070074
62	0x3f76d772	0.96422493
63	0x3e5eadbe	0.21745965
64	0x3f02d42d	0.51105005
65	0x3f0659ea	0.5248095
66	0x3e958cb3	0.29208907
67	0x3f214df4	0.6300957
68	0x3ee008de	0.43756765
69	0x3e1a6fff	0.15081786
70	0x3ead8bbc	0.3389567
71	0x3ecd0d85	0.40049377
72	0x3e89b920	0.26899052
73	0x3ecd5095	0.40100542
74	0x3ed17c58	0.4091518
75	0x3e7a0e4d	0.24419518
76	0x3e3c51e6	0.18390617
77	0x3ef94166	0.48682708
78	0x3eaa4627	0.33256647
79	0x3e8a6e62	0.2703734
80	0x3eca1ce2	0.3947516
81	0x3ebe66b8	0.37187743
82	0x3e3f9b6c	0.18711632
83	0x3e9551fa	0.29164106
84	0x3e999301	0.29994968
85	0x3edd0c7d	0.4317359
86	0x3e81ccde	0.25351614
87	0x3f56616a	0.8374239
88	0x3f1274c8	0.57209444
89	0x3ed13ce1	0.4086676
90	0x3f971d30	1.1805782
91	0x3f3c51f5	0.73562557
92	0x3e9b84e0	0.30374813
93	0x3f0ddc2d	0.55414087
94	0x3f04842f	0.51764196
95	0x3edc1545	0.42984977
96	0x3e9a2b7e	0.30111307
97	0x3f22b64f	0.6355943
98	0x3ec1a98a	0.3782466
99	0x3ebfe40d	0.37478676
100	0x3e778344	0.24171168
101	0x3e808de0	0.25108242
102	0x3e94faec	0.29097688
103	0x3e96c7c7	0.29449293
104	0x3ea4678e	0.32110256
105	0x3eb12364	0.34597313
106	0x3ecdcffb	0.4019774
107	0x3ee9402d	0.45556775
108	0x3ebec571	0.3726001
109	0x3f115622	0.56772053
110	0x3f0cc915	0.54994327
111	0x3f0290f9	0.5100246
112	0x3f2eea6e	0.6832646
113	0x3ef8bf92	0.48583657
114	0x3ea38753	0.31939182
115	0x3f25cee1	0.647688
116	0x3ee6f951	0.45112088
117	0x3eee0503	0.464882
118	0x3ea07968	0.31342626
119	0x3eb4dbf5	0.35324064
120	0x3e7afb29	0.24509872
121	0x3f37b0b6	0.71754014
122	0x3f7f0895	0.9962247
123	0x3ef51a29	0.4787152
124	0x3f23d7c1	0.6400109
125	0x3ec5dbe3	0.38644323
126	0x3e692149	0.22766604
127	0x3f271c02	0.6527711
